models/topic_classifier.pth (torch, 398424 bytes, 4 tensors)

fc1.weight f4 [128, 768]
00000000: 6b99 9d3d 723f f2bc 46f2 3ebd c06c 943c
00000010: ad70 55bc 5394 663d a919 afbc 7d4c db3b
00000020: c635 3ebd 280a 1f3d cb92 1dbd fa09 11bd
00000030: 2278 913d ca9b 2b3b f75a 3b3c 2cc2 08bc
00000040: 20c5 72bd d8fc 75bd a5c4 e03c d59b 1d3c
00000050: 38c3 45bd adab 69bd 11da 9d3c 0edf ccbc
00000060: ce3f 5b3c e293 eabc 1f2f 47bd f805 023c
00000070: 1d53 873d ac29 8a3d cb78 06bd fbf0 1d3d
00000080: 862f 243d 49a5 24bd 2029 953d 0783 113b
00000090: 272d 81bc 3dbc 033d 8758 5f3d 1b1b 573d
000000a0: 185b 243d 9ad1 343d 7038 0a3d 93a4 153d
000000b0: 7983 073d 98dd 82bd cb8b 833c 8afe 803c
000000c0: aa80 78bd 3c69 39bc fd31 20bc caad 903d
000000d0: 99e1 0d3d cd3b 513d 720d 953d 9c67 9cbc
000000e0: e934 15bc f0e6 29bc b1b1 84bd 3f85 a03c
000000f0: 5f29 b73d fd22 fa3c 8b98 79b9 ac59 e1bc
00000100: c204 a03c 278b 563d 8f3a e1bc 0796 043d
00000110: 5e21 ee3c e8a6 55bd 8125 01bc 7a7a 373d
00000120: 22c3 55bd 0bd5 94bd 4c43 2d3c 61e7 173d
00000130: 2474 a13c b15e c83b f09a 57bc 0d32 efbc
00000140: 02a0 913c 7b33 45bd 7898 6b3d 7bd9 62bc
00000150: 2f72 83bd c2ef c7bc d7fa 93bd 9a03 d23c
00000160: 499c 023d 386f f23a d6e8 923b 927c 633c
00000170: af98 a33c 82c8 8bbd 1088 cf3b 8338 b83a
00000180: 11c4 013b c896 5abd 0597 d83c 5978 523d
00000190: 6dca 553b b88b 7a3c 9e63 e5bc 0d87 31bd
000001a0: cabe 90bd 23f1 9ebd 39ee 333c 8a9a 68bc
000001b0: 864c e53a f006 873d 1e7e a3bd 29ef 85bd
000001c0: a354 7ebd 1d07 dabc 12e7 c53b e8ac 633c
000001d0: 9b9f 5a3d baf3 ac3c e3b7 113c 8d01 673d
000001e0: 4620 0d3c a88a 67bd 0f0f 07bc e35f 18bd
000001f0: 909d a6bd 95c0 183d 4328 9e3c 869e 1e3d
00000200: aa46 ab3c 3c93 903c ba17 5e3c 3ce3 023d
00000210: 46af 95bd 674a 8abb dd9c a33c 28ad 47bd
00000220: 9078 10bd adc5 883d 2021 ebbb 01f9 6fbd
00000230: 7f2a 4e3d 7677 13bd b0ad f0ba 843a d9bc
00000240: 86a6 a43d 0c5d 4c3c 8125 e53c 427a 95bd
00000250: c693 cabb cebf 793c 5f54 18bc 9943 3abd
00000260: 49de d63c ac35 d03c c385 7bbd d8e2 eb3b
00000270: ab62 a83c 9668 80bd 2a4e 2b3d ff70 18bd
00000280: 81c2 53bd 6fe2 a23b d8d4 3f3d 6d08 0d3d
00000290: 20c8 0ebd f09d d03c adbb 62bb 552d 903d
000002a0: da9f a7bc c1e5 983c 237b 6bbc bb20 733c
000002b0: b669 2fbc a473 0ebd 3fd4 803d 133a 853d
000002c0: 2426 813b a7a8 34bc ee8d a9bd 6ef0 a9bb
000002d0: 7fbd 113d 9b09 233d d75f 883c 20f6 6ebd
000002e0: b965 a4ba 12d7 ab3c 2e0e cabc c523 f7bc
000002f0: e6e5 9a3d 7da7 7eb9 17a1 78bc f3e6 0dbd
00000300: b1b7 41bc 3186 533d af3f e1bb 7db5 ae3d
00000310: 8f15 88bd 2b13 183d 271d 6a3d 8eb6 45bd
00000320: 286f 443d fb9c 4a3d 1e3d 61bd 85ec 1c3c
00000330: 4cba 573d 6af2 853d 41d8 6abc 31d8 4b3d
00000340: dc3b 94bd 1fd8 35bc 9cd2 67bc 4c39 2a3c
00000350: 642f 1a3b ecb0 fb3c 4f5b d5bc bd65 24bd
00000360: c7e4 b73b b161 08bd f44b 24bd 5452 d2bc
00000370: 8bf3 7cbc c3dc ab3c 5b38 99bd 0c90 3bbd
00000380: cf3a 04bd 104c a0bb d8c6 e43a 7cbe ad3c
00000390: 494e 0bbd c6e1 6ebd 1a7a e1bc 7a09 7b3d
000003a0: f56a 1abd 1a11 1bba fbcc 1ebc 09de 09bd
000003b0: 9bed 5a3d 941b 91bd 08a6 ef3b afaa 31bd
000003c0: 081d 893d 4c9e 6fbd 7e8e 40bd dcee 5dbc
000003d0: edd6 533d 7e90 f73c 3fed 94bc 0b87 3bbd
000003e0: 8f3f 883d b7fd 833c d009 55bd af1f 13bd
000003f0: 13b0 183d db21 a93d 5951 053c 15de 9b3d
0.07695278 -0.029571269 -0.04661777 0.018118262 -0.013027352 0.056293797 -0.02137454 0.0066924677
-0.046438 0.038828045 -0.03847007 -0.035409905 0.07102992 0.0026185387 0.011435262 -0.008347075
-0.059270024 -0.060055584 0.027437517 0.009619673 -0.04828188 -0.05704849 0.019269021 -0.025008705
0.013381911 -0.02863497 -0.048628923 0.007935993 0.066076495 0.067462295 -0.03283004 0.038559895
0.040084384 -0.04019669 0.072832346 0.0022203343 -0.0157686 0.03216194 0.054527786 0.052516084
0.040125936 0.044145204 0.03374523 0.036533903 0.033084366 -0.06389922 0.01605787 0.015746374
-0.06066958 -0.011316594 -0.009777543 0.07064398 0.034638975 0.05108242 0.07277955 -0.019092374
-0.009106853 -0.010370001 -0.064792044 0.019594787 0.08943438 0.030534262 -0.00023803317 -0.02750858
0.019533519 0.0523788 -0.027493743 0.03236964 0.029068645 -0.052161127 -0.007882477 0.044794537
-0.052188046 -0.07267197 0.010575127 0.037085894 0.0197087 0.0061148037 -0.013159499 -0.02919867
0.017776493 -0.0481448 0.057518452 -0.013845797 -0.06418263 -0.024406318 -0.07225578 0.025636483
0.031887326 0.001849628 0.0044833226 0.01388468 0.019970266 -0.06825353 0.0063333586 0.0014054928
0.0019800703 -0.053366452 0.0264392 0.051384304 0.0032621876 0.015292101 -0.028001603 -0.043341685
-0.0706764 -0.07760837 0.01098209 -0.014197001 0.0017494119 0.0659312 -0.07983039 -0.06539757
-0.062092435 -0.02661472 0.0060395086 0.0138962045 0.053374868 0.021112312 0.00889394 0.056397963
0.008613652 -0.056528717 -0.008243336 -0.03720082 -0.081355214 0.037293036 0.019306308 0.0387254
0.020907719 0.017648332 0.013555462 0.03195499 -0.073088214 -0.004220295 0.01997226 -0.04874912
-0.035271227 0.06678329 -0.0071755797 -0.058587078 0.050333496 -0.0360026 -0.001836231 -0.02651716
0.08039574 0.012473356 0.027971985 -0.072987095 -0.0061821667 0.015243484 -0.009297459 -0.045474622
0.02622904 0.025416218 -0.061406862 0.0071986727 0.020554861 -0.06269948 0.04182259 -0.037217136
-0.051699165 0.0049708406 0.046833843 0.034431864 -0.034858823 0.025465935 -0.0034596727 0.070398964
-0.020461965 0.018664243 -0.01437262 0.0148393465 -0.010706356 -0.034778252 0.06290483 0.065052174
0.0039413143 -0.011026538 -0.08279024 -0.005186132 0.03558111 0.039804082 0.016647262 -0.05834019
-0.0012542523 0.020976577 -0.024664965 -0.030168423 0.07563381 -0.00024285722 -0.015175126 -0.03464408
-0.011823581 0.051641647 -0.0068740468 0.0853071 -0.06644737 0.037127655 0.057156708 -0.0482698
0.04795757 0.049466114 -0.054989927 0.009577875 0.0526679 0.065403774 -0.0143337855 0.049766723
-0.0723798 -0.011098891 -0.014149334 0.010389637 0.0023526782 0.030724011 -0.026044516 -0.040136088
0.005611989 -0.03329629 -0.040111497 -0.025674023 -0.015438925 0.02097929 -0.07481452 -0.04579167
-0.032282647 -0.00489188 0.001745428 0.021208994 -0.034010205 -0.058320783 -0.027524043 0.061288334
-0.03769966 -0.0005915329 -0.009692426 -0.033659015 0.053449254 -0.07085338 0.0073134936 -0.043375667
0.066949904 -0.058500573 -0.04701089 -0.013545718 0.05171864 0.030220266 -0.018179534 -0.045783084
0.06652748 0.016112192 -0.05201131 -0.035918888 0.037277292 0.082584105 0.008137071 0.07610718

fc1.bias f4 [128]
00000000: 5d9a e4bc 21f2 f43a c28b 93bc 9aed 883c
00000010: c143 033d 30f3 a43c 93e0 01bd 4b6f a03c
00000020: 72fe 84bc a79b 6b3c 45da cd3b 36a2 5e3b
00000030: a3a5 82bc dba2 0cbc b2bf 03bd 3a87 ad39
00000040: f8c3 e83b 4b50 8e3c c6b2 09bd 0624 003b
00000050: f15a 213d 6197 1abc bfc4 33bc 6e1a eb3c
00000060: 20a8 e23c 8a81 8fbc f5c3 2cbd 983c b8bb
00000070: 3405 b539 1d72 b63c cd01 34bc 897c 6abc
00000080: 6ca5 613b a744 c9bc ccd2 34bd 02a4 013d
00000090: 8ccd 923c 7e29 473c 63dd 9d3c f4c9 c83c
000000a0: 436a 66bb d384 c8bb 44f4 27bb 9943 803c
000000b0: 526f 0c3d 6671 59bc 2138 42b9 efbb 9a3c
000000c0: 749a 603c 092c 74bc 4fe5 f9bc 00b5 1e3c
000000d0: c24f 16bd 0b03 dfbc 78fd a73c cb1a 6cbc
000000e0: 599b 14bd efba 8f3b f200 70bc 4ec7 1bba
000000f0: 8507 dcbc a815 09bd 0010 e1ba 2d2c 523c
00000100: 0f1c f9bc 02c4 223d c7b8 2dbd 0a2f c6bc
00000110: a593 59bc fe21 91bc cea1 9c3b 898c b73c
00000120: 26b0 f1bc 02c5 f03c 936e 8e3c 9e7e 7ebb
00000130: f620 3bbb b29e eebc 2c37 123d 9baa 27bc
00000140: ab99 ab3c b260 ab3b bc57 853c 0967 39bd
00000150: c464 333c 32cc f33c 5447 bebc bd0f 92bc
00000160: 8015 43ba 1f56 903c 5005 f43c 2d90 423c
00000170: 2506 cc3c 1a7c 1c3d cf35 48bc 5b29 0cbd
00000180: 3950 f0bc 3231 0ebd 1bd1 98bc 4ceb 943c
00000190: e9ab 56bc 0b4d 36bd 26cb 9bbc a3ff 6ebc
000001a0: 50a9 c0bc 7217 02bc 4741 e3bc dbcc 18bc
000001b0: 4136 ca3a 6f54 0e3c 4098 a43c cae8 22bc
000001c0: 9e46 aa3c cccc f53c 3b8a 97bc 0d4a bebc
000001d0: 0d5b a23c c33e 803c 239c 2cbc fc45 68bc
000001e0: b18b 16bd 9cc4 913c e507 9bbc 82fb 993c
000001f0: ec2b fe3c 9709 353c 2db5 283d 299b 3c3c
-0.027905637 0.0018687883 -0.018010978 0.01671486 0.032047037 0.020135492 -0.03170831 0.019584319
-0.01623461 0.014380372 0.0062821233 0.0033971197 -0.015948122 -0.00858375 -0.032165237 0.00033097883
0.0071034394 0.017372271 -0.033617757 0.0019552722 0.03939337 -0.009435506 -0.010972201 0.028699126
0.027668059 -0.017517824 -0.042179067 -0.0056224577 0.00034526887 0.02227121 -0.010986757 -0.014311918
0.0034430875 -0.024568869 -0.044146344 0.03165055 0.017920278 0.012155889 0.019270604 0.024510361
-0.0035158552 -0.0061193495 -0.0025627771 0.015657233 0.03428585 -0.013271665 -0.00018522191 0.018888442
0.0137086995 -0.014903077 -0.03050485 0.009686708 -0.036697157 -0.02722313 0.020506606 -0.014410685
-0.036280964 0.004386298 -0.014648663 -0.00059424795 -0.026859054 -0.03346792 -0.0017170906 0.012827915
-0.030408887 0.03973771 -0.042412546 -0.024192352 -0.01327983 -0.017716404 0.004780031 0.02240588
-0.02950294 0.029390816 0.01738671 -0.0038832794 -0.0028553582 -0.029128406 0.035697147 -0.010233547
0.020947298 0.005230033 0.016277187 -0.045264278 0.010949317 0.029760454 -0.023227371 -0.01782977
-0.00074418634 0.01761919 0.02978769 0.0118751945 0.024905274 0.03820429 -0.01221986 -0.034219127
-0.029335128 -0.034714885 -0.018654397 0.018178605 -0.01310251 -0.044507068 -0.019017767 -0.014587316
-0.023518234 -0.00794016 -0.027741088 -0.009326185 0.0015427546 0.008687123 0.02009213 -0.009943197
0.020785626 0.030004881 -0.01849853 -0.02322867 0.019818807 0.015654927 -0.010535273 -0.014176842
-0.036754314 0.017793946 -0.018924663 0.018796686 0.031026803 0.01104965 0.041188408 0.011511602

fc2.weight f4 [5, 128]
00000000: d05b 02bc a1be 2fbd 3802 4bb9 8fb3 a2bd
00000010: 4be3 9b3d 59e4 22bb d6fb 9c3d 442e 3b3d
00000020: b037 40bd 81ab ba3d c9e8 203d b04f a9bd
00000030: ee77 32bd bd03 afbd af68 7d3d 583d 9abd
00000040: 9616 963d db71 4b3d abdc 59bd 688e 0abe
00000050: bd8b a83c 4d3f 9dbc 3197 76bd 3681 c2bd
00000060: a0b1 273d f1b8 c0bd f6d2 b2bd 32b7 fc3d
00000070: 6da0 b13d 6fcf 21bd bf4a 9f3d 6134 bcbd
00000080: 6c6f 833d d82b 1abd c73b 2a3c 6533 fcbc
00000090: e15f 17bc f13a 4cbd 584c 1abc 5aed 933d
000000a0: 2c64 e3bd c66b 17be ae1a a8bd 859b c23d
000000b0: bb65 d53d 1e14 393d 57c7 943d 1cf3 903d
000000c0: 3f70 17bc 6875 3abd 73e4 b43d 8b5f e9bb
000000d0: 6640 d13d ac17 03be da1b 38be 14ce 29ba
000000e0: dc9b c1bd d2a4 b03d f95c 0bbe d253 45bd
000000f0: e742 27be 9aec 2a3d 1364 af3d 2675 a83c
00000100: f41c 9c39 0c3e dfbd a88f d8bd 5310 86bb
00000110: c6f8 1dbd a492 193d 5112 093d e0e2 f9bd
00000120: b3c1 b23d 6acf 0e3d b4d0 003d d1bf bc3d
00000130: 0ea9 b53d a3f4 fbbc 5569 c6bd be4d 64bd
00000140: e7a8 373d ef22 4d3d c915 b13d 53a7 98bd
00000150: 28c2 953d a3b2 6d3d 9a43 303c 76af a0bd
00000160: 9c4c efbd cd62 b0bd 881e 92bd 0683 f13d
00000170: 00c5 cb3d 23f4 c93d 8ffb 17be cbaa c9bd
00000180: 6425 523d 64c8 82bc 5817 bd3d dbec 2a3d
00000190: 8809 50bd 6629 7bbd 73fd ee3c d3aa bf3c
000001a0: e894 7e3d 2c87 643d f310 3c3d 333d 003b
000001b0: e9b9 093d a9d9 8f3c cf63 8bba ba66 313d
000001c0: 50a3 c6bc 99af 573d ac3b 4c3d 1692 efbc
000001d0: d841 abbc dd92 87bd b4f9 853d 79fc 30bc
000001e0: 21df bebd 19e3 633d fd10 6d3d ce22 2cbd
000001f0: bbfb 803c f9eb 083e 3cad f13d 9130 e93c
00000200: 1ea3 683d 523c 0b3d 763b 9f3d 5197 1a3d
00000210: b900 2a3c b248 cb3d 0368 a9bd 5dac 563d
00000220: 3023 1bbc 1fd2 dd3c d72b a93d 7bb8 debc
00000230: 6d79 febc d257 22bd 7ed9 b53d 7c4c a8bd
00000240: ab14 b4bc c6fc 45bd 7ea8 1d3d b544 21be
00000250: b5e2 7b3c 1acf b1bd 45a1 03be 0960 2dbe
00000260: af11 62bd bdd7 3b3c bdb9 2e3d 75a1 9fbd
00000270: 81e7 10be 3f5d d43d 0f05 c6bd 9920 203e
00000280: 7e21 01be 1d9f 6a3d 169e 1e3d 94de bc3d
00000290: 8a62 603c 5a11 d5bc 139a 883d 8f37 d23d
000002a0: 3ac8 bd3c 52c6 923d 8ab4 c8bd eb40 9cbc
000002b0: 4648 003e d8d0 813d 89de 3b3d a1c9 cabc
000002c0: 37f6 bc3d 8228 38bd ea3c 1d3d 78e9 a1bc
000002d0: 31f9 6cbc 7b3b b3bd 563f b93d 2d83 0bbe
000002e0: 71c7 5b3d 260f 963d b5e4 7a3d b708 89bd
000002f0: 41d4 923d 07d0 d43d c51c 81bd a78a 973d
00000300: 6e91 cbbd 8a1a 07bc ffad b03d d642 c13d
00000310: 8bee 70bd 0fc6 b7bd 945b 24bd 169d ae3d
00000320: 0ced c0bd 309c 30bd 5cf9 c6bb 4b7d d6bb
00000330: 44e2 a1bc 90ee 5dbd 55b3 92bc cf54 46bd
00000340: 6759 11bd 1576 4f3b d5e0 f1bd 0212 b1bb
00000350: 36bd dfbd 7f71 723d 4bd6 87bd 1b4a a3bd
00000360: 6a68 b4bd 00a8 603d 0b58 a2bd 1d30 543d
00000370: 55a8 b6bd b183 433c 360f aebd 9296 e63c
00000380: d26c 233d e2d4 553d ff28 9dbd c7c2 a33d
00000390: f682 d63c 80e0 a83d 8df0 de3d 0c24 2fbd
000003a0: 767e 4abd 1403 8bbd 4139 c2bd a6ec 4c3b
000003b0: 746b 6abd c782 0abd c968 6d3d eca4 173d
000003c0: 6fc2 943c 3756 cb3d 15ce a63d 4268 b63d
000003d0: fe4e df3c 60b3 c0bd 771c 80bd 6354 fd3c
000003e0: d5fc c1bd ad40 33bd 1bc2 043e 220b ac3d
000003f0: ee6d 0c3d 072a 53bc ae13 30bc dfa6 7f3d
-0.00795646 -0.042906407 -0.00019360415 -0.07944404 0.07611712 -0.0024855344 0.076652214 0.04569842
-0.046928108 0.09114743 0.0392845 -0.08267152 -0.043571405 -0.08545635 0.061867412 -0.07531232
0.07328527 0.049669128 -0.05318896 -0.13530886 0.020574445 -0.019195223 -0.06020278 -0.09497301
0.04094088 -0.09410275 -0.08731644 0.12339629 0.08673177 -0.039504465 0.077779286 -0.09189678
0.064177364 -0.03763947 0.010390229 -0.030786226 -0.009239168 -0.0498609 -0.009417616 0.072230056
-0.11103091 -0.14787206 -0.08208214 0.09502319 0.10419794 0.0451852 0.072645836 0.070776194
-0.00924307 -0.045522124 0.08832636 -0.0071219853 0.10217361 -0.12801999 -0.17979375 -0.00064775464
-0.09453556 0.08625187 -0.13609685 -0.04817564 -0.16334115 0.041729547 0.085640095 0.020563673
0.0002977621 -0.109005064 -0.10574275 -0.0040913015 -0.038567327 0.037493363 0.033464734 -0.12201476
0.087283514 0.034865774 0.031449035 0.092162736 0.08870135 -0.0307563 -0.09688059 -0.055738203
0.044838812 0.050082143 0.08646733 -0.074537896 0.07312423 0.05803169 0.010758305 -0.078459665
-0.11684534 -0.08612595 -0.071347296 0.11792569 0.09949684 0.098610185 -0.14842056 -0.09847029
0.05130519 -0.015964694 0.09232968 0.04172979 -0.05079034 -0.061318778 0.029173588 0.023396885
0.062153727 0.055792972 0.0459146 0.0019567728 0.033624563 0.017559843 -0.0010634604 0.04331086
-0.024247795 0.052657697 0.049861595 -0.029244464 -0.02090542 -0.06619809 0.06541768 -0.010802382
-0.09319902 0.0556365 0.05787753 -0.04202538 0.015745034 0.13371266 0.1180062 0.028465541
0.056796186 0.033993073 0.07775013 0.037741963 0.010376149 0.09925975 -0.08271792 0.052410472
-0.009468839 0.027077733 0.08260315 -0.027187577 -0.03106376 -0.039634533 0.08879374 -0.08217713
-0.021982512 -0.048336767 0.038490765 -0.15748866 0.015373875 -0.086820796 -0.12854488 -0.16931166
-0.055192646 0.01146501 0.042657603 -0.07794467 -0.14150812 0.10369348 -0.096689336 0.15637435
-0.12610433 0.05728065 0.03872498 0.09222141 0.013695369 -0.02600925 0.06670012 0.10264503
0.023166765 0.07166733 -0.0980006 -0.019073924 0.1252757 0.06338662 0.045866523 -0.024754347
0.09226649 -0.044960506 0.03838817 -0.019764647 -0.014463709 -0.087515794 0.090452835 -0.13624258
0.053657 0.07327108 0.06125327 -0.06691115 0.071693905 0.103912406 -0.063043155 0.07399493
-0.09939848 -0.0082460735 0.08626937 0.09436576 -0.058821242 -0.089733236 -0.0401264 0.085260555
-0.09420213 -0.043117702 -0.0060722064 -0.006545698 -0.019761212 -0.05418259 -0.017907778 -0.048420724
-0.03548565 0.0031656076 -0.118104614 -0.005403758 -0.10924761 0.05919027 -0.0663267 -0.07973119
-0.08808978 0.054847717 -0.07926949 0.051803697 -0.089188255 0.011933253 -0.08498995 0.02814797
0.0398987 0.052204974 -0.07673835 0.07996135 0.026185494 0.08245945 0.10885725 -0.042758986
-0.04943701 -0.067876965 -0.094835766 0.0031268983 -0.05723138 -0.033816125 0.05796126 0.037022516
0.01815912 0.099285536 0.08144776 0.08906604 0.027259346 -0.09409213 -0.06255429 0.030924028
-0.09472052 -0.04376285 0.1296467 0.08400561 0.034284525 -0.012888438 -0.0107468795 0.062415

fc2.bias f4 [5]
00000000: 3b0b 3dbd ecb3 933d 77bd 06bc ad3f 1e3d
00000010: cb0b e53c
-0.04615329 0.07212052 -0.008223883 0.038634945 0.027959725
